data.pth (torch, 7787 bytes, 6 tensors)

l1.weight f4 [8, 96]
000000 78 36 07 3e f8 05 72 3f 7a 14 0f bf 47 29 40 3d
       0.13204372 0.9454036 -0.5589062 0.046914365
000010 b8 ac 41 3f 1c 9d e8 be 0a 29 78 3d 41 06 4f 3f
       0.7565417 -0.45432365 0.060586013 0.8086892
000020 97 e0 18 3f 7f f8 11 bf c0 3f 07 3f 1a 79 33 3e
       0.59717697 -0.570198 0.5283165 0.17526665
000030 a7 36 ad 3e 21 6e e6 3e 13 8f bd 3d 85 3a 79 be
       0.3383076 0.45005897 0.09255805 -0.2433873
000040 b8 a2 f6 be 00 f6 9c 3e 00 0d d2 3d 18 9b 81 be
       -0.4817102 0.30656433 0.10256386 -0.2531364
000050 54 16 90 be 3d ee f7 bb 3e 1a 4a be 99 61 d5 be
       -0.28142035 -0.007566242 -0.19736573 -0.41676024
000060 df 4a 41 3f b5 f5 e4 3c a0 b7 0b 3f c8 12 05 3c
       0.7550487 0.027949193 0.54577065 0.008122154
000070 55 ef 36 bd 4a ed 0a 3f 0e c1 27 be 26 4f c4 be
       -0.04466184 0.54268324 -0.16382238 -0.38341635
000080 02 ae 9a 3e bb db fb 3d 49 d4 ba be 2d 11 d0 bd
       0.30210882 0.1229777 -0.36490086 -0.10159526
000090 f1 f0 91 3f 63 f6 74 be 6a 6c f1 be 81 46 bb 3f
       1.1401654 -0.23922114 -0.47153026 1.4630891
0000a0 c9 93 a7 3d 23 7b 37 bf 84 7a 88 be fb 88 37 bf
       0.08182485 -0.71672267 -0.26655972 -0.7169339
0000b0 a0 ed fb 3e cc 1d 18 bf 23 84 3d 3f db 10 8f 3f
       0.4920473 -0.59420466 0.7402975 1.1177019
0000c0 6a 31 e7 3e 62 9d 18 3f bb 59 c4 be 00 8d e7 be
       0.45154887 0.5961515 -0.3834971 -0.45224762
0000d0 e5 53 9b 3f ed 8b 89 be e3 84 ce 3c 13 31 71 be
       1.2134978 -0.26864567 0.02520985 -0.23553877
0000e0 19 d4 d1 3e 30 84 6f 3f ad 7b 6e 3e 1a da 1e 3d
       0.4098213 0.9356108 0.23289366 0.038782217
0000f0 2d 3f 50 3f 02 19 13 3f 6d ae ac 3d 3d 1b 35 bd
       0.813464 0.57460034 0.084317066 -0.04421543
000100 b7 52 5f 3f da ea cd 3e cd 04 9c 3e ff 8e 83 be
       0.8723559 0.4021824 0.30472413 -0.25695035
000110 c6 c3 0c 3e 59 e9 a3 3f e9 6f a5 be c7 08 89 be
       0.13746557 1.2805587 -0.32311943 -0.2676451
000120 89 fb 03 3d 59 ad 6b 3f b9 2c a9 3e 8f d6 b1 be
       0.032222304 0.9206138 0.33041933 -0.34734008
000130 1e af 1b 3f a9 d6 1c bf ff 8d b1 be a0 3b 0e 3f
       0.6081408 -0.61265045 -0.34678647 0.5555973
000140 8f 68 8f bd 76 f9 af 3e f7 b8 00 bf 2b fa be bd
       -0.07002365 0.3437001 -0.50282234 -0.093250595
000150 70 02 af bd 00 06 d5 be e5 70 7d 3e 18 c8 20 bf
       -0.08545387 -0.4160614 0.24750097 -0.6280532
000160 e3 fd 93 3f 9f 97 ae 3e 4f 97 58 3f e8 7c cc be
       1.1561855 0.34100053 0.8460588 -0.39939046
000170 aa c4 ad be ec 4e ec 3d 80 f0 1a 3d c5 36 63 3e
       -0.33939105 0.11538491 0.037827015 0.22188862
000180 30 95 03 be 75 5c ff be 0a 2e d8 3e c7 92 3c 3f
       -0.1284988 -0.49875227 0.42222625 0.73661464
000190 99 99 01 3f 52 cc e2 be e5 ed 9e bb 31 a7 b0 3d
       0.50624996 -0.4429651 -0.0048501366 0.08625639
0001a0 50 f7 f2 3e d8 69 27 3f 8b ad 08 be 9e dd 4d 3f
       0.4745431 0.6539588 -0.13347451 0.80416286
0001b0 46 83 81 3e e9 52 17 3f 43 fe 66 bf 76 98 20 3e
       0.25295466 0.59110886 -0.9023172 0.15683159
0001c0 12 3f 0f bf b2 22 55 3f f9 19 c6 3e b3 5f 81 3e
       -0.5595561 0.83256066 0.3869169 0.25268325
0001d0 72 02 89 3e b8 f4 1f 3f b0 bd 5b 3e 58 a7 0d 3f
       0.26759678 0.62482786 0.21459079 0.5533347
0001e0 be 75 8b bd e3 6b 5e 3e 08 63 d7 3d 07 9e da bd
       -0.06809567 0.21720843 0.105169356 -0.106746726
0001f0 b1 6e 8e bd 84 3d 30 3e 4d 6d 74 3e 71 e1 ba 3d
       -0.069547065 0.17210966 0.2386982 0.09125031
000200 1d 6e 75 be 5f 03 66 be 0f 62 73 3e d0 15 49 3f
       -0.23967786 -0.22462223 0.23767875 0.7854891
000210 bb 10 3c 3e 82 2b 25 3f 3f e5 f4 be 49 66 15 bf
       0.18365757 0.6451951 -0.4783115 -0.583592
000220 81 41 41 3f 84 c8 5a 3f a5 57 04 3d 9e f0 62 3f
       0.75490576 0.8546221 0.032310147 0.886484
000230 12 26 ab be 63 3b 4d 3f 16 40 98 3c 88 5d f1 3e
       -0.33427483 0.8016874 0.018585246 0.4714167
000240 95 d0 da 3e 41 5a 64 be 36 77 2f 3d 76 0e d0 be
       0.4273726 -0.22300054 0.042838298 -0.40636033
000250 96 27 4f bd 1a d8 99 be bd 1c 0e 3e 0d ec 6d 3e
       -0.05057486 -0.30047685 0.1387815 0.23234577
000260 23 9d cc 3d 61 6f b0 bc 08 e2 6d bf 22 1c 7d bd
       0.09990909 -0.021537485 -0.9292302 -0.061794408
000270 e9 58 1a bf 8d 8e 27 3f c4 c1 13 3f a0 1f 16 be
       -0.60291916 0.6545189 0.5771754 -0.14660501
000280 cc 8c 0a 3d 2e 26 89 be 53 28 de 3e e9 cf 1b be
       0.03382568 -0.2678694 0.4339014 -0.1521603
000290 7d 0e 10 3e 43 8e ec be 91 b1 d9 be d4 b5 19 3f
       0.14068027 -0.46202287 -0.42518285 0.6004307
0002a0 e9 98 21 be 98 98 18 bf b3 1e dd 3e 31 83 0e 3f
       -0.15780987 -0.5960784 0.43187484 0.5566893
0002b0 cc 93 c6 3e 86 9f 12 be 69 62 8f 3d 37 da df be
       0.38784635 -0.14318666 0.07001192 -0.43721172
0002c0 39 69 bd 3e 8f a9 e4 be 0f b1 9b be be 8b 02 3f
       0.3699434 -0.44660613 -0.30408522 0.5099448
0002d0 db 60 db 3e 96 d8 65 3e 7d 96 d8 be 6c 17 d1 be
       0.42847332 0.22445902 -0.42302313 -0.40838182
0002e0 2d 01 77 bf d1 ef 4e 3f fd 21 54 3e 41 b8 8f bd
       -0.9648617 0.8083468 0.2071609 -0.070175655
0002f0 d1 c7 b3 bd 2e df d0 3e f3 5c 0b 3f c6 1d fd 3e
       -0.08778346 0.40795273 0.54438704 0.49436778
000300 cc ed f3 3d e2 89 75 3f 69 70 29 bf ef 69 cd be
       0.119105905 0.9591352 -0.6618715 -0.40119883
000310 de 84 fb 3b 29 a6 22 bf 56 6d a0 bd a2 71 0c bf
       0.007675751 -0.6353479 -0.07833354 -0.5486089
000320 43 d6 cb 3a 99 ab 8a 3e 2f a2 74 3e 0f 9b 55 bd
       0.0015551526 0.27084044 0.23889993 -0.05214983
000330 5e 2d d3 3e 30 3a 7a 3f 2c 39 24 bf 68 8e f5 bd
       0.4124555 0.9774504 -0.6414974 -0.119900525
000340 e3 b6 17 3d 69 60 13 3f f6 ea ed bd 40 82 35 3f
       0.03703965 0.57568985 -0.11617081 0.7090187
000350 51 0e 1d 3f 5a 01 f1 be dc 21 0e 3f ce 24 60 3e
       0.6134997 -0.47071344 0.55520415 0.2188904
000360 1c 04 70 3d 71 03 42 bf 91 ce 8d 3e 00 32 d3 3d
       0.05859767 -0.757865 0.2769666 0.10312271
000370 4b c6 06 bc 2e 42 90 3e db 6c 00 3f 5b bf 29 bf
       -0.008225988 0.2817549 0.501661 -0.6630761
000380 47 17 1e 3f a1 b0 29 3f 07 96 d4 be a8 17 49 bc
       0.6175427 0.6628514 -0.41520712 -0.0122737065
000390 86 f5 1e bd 5b bb 80 3e d2 da e7 3d e6 dc 50 3f
       -0.03880837 0.2514294 0.113210335 0.81587064
0003a0 19 e2 f5 be 53 fa aa 3e c8 9f 72 3e ce 4b a6 3e
       -0.4802406 0.33394107 0.23693764 0.3247971
0003b0 62 99 13 3f 71 d8 09 3f 4d 75 c3 be 02 fd 2d bf
       0.5765592 0.5384589 -0.3817543 -0.67964184
0003c0 61 bf 1e 3e a7 69 61 3e 4c 5a 3d 3f 0c b4 0d be
       0.15502693 0.2201296 0.7396591 -0.13838214
0003d0 4d 74 25 bf 53 b2 a9 3d a3 92 26 3f 7f eb 2c 3f
       -0.64630586 0.08285966 0.650675 0.6754684
0003e0 bd c0 7a 3f 0c ec a3 3e bf 27 20 bf 9a 6d b6 3d
       0.97950345 0.32016027 -0.6256065 0.089076236
0003f0 6d 1d 0c bf 9e 6f 06 3e 5d 74 c8 be 97 1f c5 bc
       -0.547324 0.13128516 -0.39151278 -0.024062915

l1.bias f4 [8]
000000 5e 85 37 3f e6 9d 3a 3f d0 08 5d 3f d6 c3 7a 3f
       0.7168788 0.72897184 0.8634157 0.9795507
000010 86 e7 77 3f 6e 50 12 3f 56 cf 08 3f 1b 04 7e 3f
       0.9683765 0.57153976 0.5344137 0.99225014

l2.weight f4 [8, 8]
000000 dd 46 c5 3d 8e 85 67 3f 30 88 7a 3f 6b ef 3c be
       0.09632657 0.90438163 0.97864056 -0.18450706
000010 a5 7d 3d bf 47 22 71 bf 3d d5 01 40 e8 82 0c 3f
       -0.74019843 -0.9419293 2.02864 0.5488725
000020 44 69 96 3f ae 61 a4 3f 4b de c6 bf 5f ad 87 bd
       1.1750875 1.284231 -1.5536588 -0.06624865
000030 53 3f 28 bd a9 db f6 3f 12 d8 13 3f 0c ab 9f be
       -0.041076016 1.9285785 0.5775157 -0.31185186
000040 dc 0b 14 3f 28 2d 5c 3f 2f 6b 1b 3f 57 1f f2 3f
       0.57830596 0.860064 0.60710424 1.8915814
000050 b1 76 e7 bf 4c 23 ea 3e 26 32 87 bf e5 b5 92 3f
       -1.8083097 0.45730054 -1.0562179 1.146176
000060 f7 94 da 3f 80 30 9b bf dc 7e 94 3f 0d 41 85 bf
       1.707671 -1.2124176 1.1601214 -1.0410477
000070 64 ef e7 3e fc c0 c4 3f 28 2d c7 be bb dd 74 3f
       0.45299828 1.5371394 -0.3890164 0.95650834
000080 2d 38 09 3c 87 63 c3 3f 8f 59 b4 3f a4 1e fa 3f
       0.00837521 1.5264748 1.4089831 1.9540601
000090 db 92 3f bf f7 88 be 3e d1 89 8d 3f a0 e8 0d bf
       -0.7483346 0.3721387 1.1057683 -0.5543308
0000a0 cc 1f a6 3f f6 7a 3b bf 6a d1 ff 3e 74 e4 b9 3f
       1.2978454 -0.732345 0.49964458 1.4522843
0000b0 4a 49 ba 3f b4 ec 12 bf 33 7c d9 be c8 f1 05 bf
       1.4553616 -0.5739243 -0.4247757 -0.52322054
0000c0 d6 55 0a bf f9 61 a3 3f b5 f3 7f 3e 46 c7 96 bf
       -0.54037225 1.2764274 0.2499531 -1.1779563
0000d0 5f 57 31 3f 1a 26 7d 3e 6a 93 dd 3d e3 c6 0e 40
       0.6927394 0.24721566 0.108191326 2.230889
0000e0 e0 90 a2 3f a0 78 28 3f ed 59 80 3f fa 1b 8d bf
       1.2700462 0.6580906 1.0027443 -1.1024163
0000f0 fc a7 62 bf 05 35 fa be 4a 43 8b 3f 5e 6c da 3f
       -0.88537574 -0.48868576 1.087991 1.7064321

l2.bias f4 [8]
000000 b5 9f 9b 3c ed bb ff 3c 72 bc b2 bd 16 2b f3 3e
       0.018997053 0.03121754 -0.08727349 0.4749381
000010 bd 05 e1 3e 93 81 25 3f 36 9b 8d 3f 42 67 47 be
       0.4394969 0.6465084 1.1062992 -0.19472983

l3.weight f4 [18, 8]
000000 12 ba a1 bf b3 83 6f 3e b0 e9 5b 3f 8f b5 cc 3d
       -1.2634909 0.23390083 0.85903454 0.09995567
000010 f7 66 8f bd 5c 7e c4 bf 9f bc 76 bf 69 9a 89 be
       -0.07002061 -1.5351062 -0.9638156 -0.26875618
000020 01 4e 8a bf 3a df 36 3f 62 de 79 bf 27 20 78 3e
       -1.0805055 0.71434367 -0.97604954 0.24231015
000030 45 d0 71 bf b5 2b 47 bf c7 49 2f be 07 f8 8f 3e
       -0.9445842 -0.77801067 -0.17117988 0.28118917
000040 62 da 0e 3f 9d 07 0d 3f 97 7c c5 bf 6c ce 0e c0
       0.55801976 0.5508974 -1.5428647 -2.231349
000050 71 69 f6 3e 06 1e 97 be 4c b0 56 be 37 33 e5 bf
       0.4812732 -0.29515094 -0.2096569 -1.7906255
000060 74 36 ed 3e b5 13 a7 bf 1e 81 84 3e 78 fa 26 bd
       0.46330607 -1.3052889 0.2587976 -0.04076621
000070 44 26 20 bd 83 25 bd bf 0f 71 45 bf 3f 35 7a 3e
       -0.039098993 -1.4777073 -0.7712564 0.24434374
000080 c9 b0 09 3f be 4c 13 bf 38 15 2f 3e c6 cc 01 c0
       0.5378538 -0.57538974 0.17097938 -2.0281234
000090 80 5d 3e 3f c9 c6 8b bf 1f af da bf 0e 59 4c be
       0.7436142 -1.092004 -1.7084693 -0.19955847
0000a0 df 82 6a 3e bb 0a f2 3e 6c a4 73 be ae 8f 00 bf
       0.22901486 0.47273812 -0.2379319 -0.5021924
0000b0 e5 82 82 3e 0f e7 df bf 4f 59 2c be 32 50 78 be
       0.2549049 -1.7492388 -0.16830944 -0.24249342
0000c0 3e bf 9f bf 8a 40 cd bf a4 1a eb bf 9c 53 44 3f
       -1.2480237 -1.6035321 -1.8367505 0.7669008
0000d0 43 53 1f c0 69 e1 fe be f1 01 89 3f ac 71 c5 be
       -2.489457 -0.4978135 1.0703717 -0.38563287
0000e0 7a 6b fb bc e3 eb ca bf 0a e6 85 3e 00 c4 09 3f
       -0.030690897 -1.5853237 0.26152068 0.538147
0000f0 36 4e ce bf 8b 52 9f be fe 9a 1e be 26 d8 9b 3e
       -1.6117618 -0.31117663 -0.15488812 0.30438346
000100 1b d8 0d 3f 50 78 64 bf 15 7d df 3e 9f 83 12 c0
       0.55407876 -0.8924608 0.43650118 -2.2892835
000110 39 bc 18 3e 25 16 0f c0 b3 aa 05 3f bc a3 da 3d
       0.14915551 -2.2357266 0.5221359 0.10675761
000120 33 6c c6 3e 2b 35 a1 bf 30 8e f4 bf 42 95 28 3e
       0.38754424 -1.259435 -1.9105892 0.16463187
000130 f7 ee f1 3d a4 6b b5 bf ab 58 63 be ee b5 24 3f
       0.11813157 -1.4173474 -0.22201793 0.643401
000140 75 4f 50 bf b7 4d 11 3f fb 11 dc bf 84 3e 31 3f
       -0.8137124 0.5675921 -1.7192987 0.69236016
000150 66 8e ef bf 51 6f e0 bf ab 7b fb 3e 7d 4f e3 bf
       -1.8715332 -1.7533971 0.4911779 -1.7758633
000160 94 12 d1 be df 53 97 be 69 2c ef bf dc 09 aa bd
       -0.40834486 -0.29556176 -1.8685428 -0.08302662
000170 92 87 a5 bf 9a e8 91 3f ac 09 c3 bf fa ad 81 bf
       -1.2931998 1.1399109 -1.5237327 -1.0131218
000180 ef 6e f5 3e f1 ed a2 3e 91 9d dc bf d0 97 43 bf
       0.47936198 0.3182216 -1.7235585 -0.7640352
000190 3e b7 0d bf 77 da 2f c0 5d 7c 47 3f 4b 8d e1 3e
       -0.5535773 -2.747709 0.7792414 0.4405311
0001a0 e3 b0 06 3d 79 53 17 3e 3a cb dc bf f8 c0 ec 3e
       0.032883536 0.14777936 -1.724952 0.46240973
0001b0 0c fb 8e bc 60 6d 5c bf 60 8e f1 bf ed 75 96 3e
       -0.017453693 -0.86104393 -1.8871574 0.29386845
0001c0 56 68 a8 bf dd fd 56 3f 64 87 0d 3f c6 3a d2 bf
       -1.3156841 0.83981115 0.55284715 -1.6424186
0001d0 76 93 4e 3f aa 2a dd bf 44 47 13 bf c6 25 0b c0
       0.8069376 -1.7278645 -0.5753062 -2.1741805
0001e0 8c 64 9b be d8 97 ed bf 74 8f bc bf 86 a6 f1 3d
       -0.3035015 -1.8561964 -1.4731278 0.1179934
0001f0 37 2f 07 3e bf 29 d6 3d af f6 26 3f b6 8b 03 c0
       0.13201605 0.10457181 0.6522016 -2.0554023
000200 de 93 b7 bf 1f 9e 11 3f 7d 98 7c be d9 a5 13 3f
       -1.4342 0.568819 -0.24667545 0.5767494
000210 d2 d7 34 bd 6b b3 9e be ff 97 c5 bf 43 9b e5 bf
       -0.044151135 -0.3099626 -1.543701 -1.7938007
000220 b9 d2 b6 bf 9b 66 d8 bf 2e 71 c7 3e 14 9e 0e c0
       -1.4283057 -1.6906313 0.38953537 -2.2283983
000230 58 71 52 3f 6d 11 86 3e 45 b4 52 bf c5 6c c4 bf
       0.822042 0.2618517 -0.8230632 -1.5345694

l3.bias f4 [18]
000000 c9 26 2e bf c9 17 97 be 00 25 be 3e e0 b7 3c bf
       -0.6802793 -0.29510334 0.37137604 -0.7371807
000010 f9 a0 b3 be 84 74 6d bd fb f4 14 3f b9 71 8c be
       -0.3508375 -0.057972446 0.5818631 -0.27430514
000020 61 b7 e7 3d 85 e5 2c be 21 67 df 3e af de e4 3e
       0.113142736 -0.1688443 0.4363337 0.44701144
000030 eb db 88 3e 82 a1 2e bf 3a 47 57 bd b0 e5 1c 3f
       0.26730284 -0.6821519 -0.05255816 0.61287975
000040 95 23 55 be 8b 48 c7 3e
       -0.20814355 0.38922533
